…

Platform: View model at https://platform.ultralytics.com/sawit-ulm/baseline-sawitmvc/y26me60p60b32s42
Downloading https://storage.googleapis.com/alpha-ultralytics-ap/exports/6a08667ee427f2ec87a21171/sawitmvc-yolo.ndjson to &apos;sawit-ulm/datasets/sawitmvc-yolo/sawitmvc-yolo.ndjson&apos;: 100% &#x2501;&#x2501;&#x2501;&#x2501;&#x2501;&#x2501;&#x2501;&#x2501;&#x2501;&#x2501;&#x2501;&#x2501; 1.6MB 1.3MB/s 1.3s
Overriding model.yaml nc=80 with nc=4

                   from  n    params  module                                       arguments
  0                  -1  1      1856  ultralytics.nn.modules.conv.Conv             [3, 64, 3, 2]
  1                  -1  1     73984  ultralytics.nn.modules.conv.Conv             [64, 128, 3, 2]
  2                  -1  1    111872  ultralytics.nn.modules.block.C3k2            [128, 256, 1, True, 0.25]
  3                  -1  1    590336  ultralytics.nn.modules.conv.Conv             [256, 256, 3, 2]
  4                  -1  1    444928  ultralytics.nn.modules.block.C3k2            [256, 512, 1, True, 0.25]
  5                  -1  1   2360320  ultralytics.nn.modules.conv.Conv             [512, 512, 3, 2]
  6                  -1  1   1380352  ultralytics.nn.modules.block.C3k2            [512, 512, 1, True]
  7                  -1  1   2360320  ultralytics.nn.modules.conv.Conv             [512, 512, 3, 2]
  8                  -1  1   1380352  ultralytics.nn.modules.block.C3k2            [512, 512, 1, True]
  9                  -1  1    656896  ultralytics.nn.modules.block.SPPF            [512, 512, 5, 3, True]
 10                  -1  1    990976  ultralytics.nn.modules.block.C2PSA           [512, 512, 1]
 11                  -1  1         0  torch.nn.modules.upsampling.Upsample         [None, 2, &apos;nearest&apos;]
 12             [-1, 6]  1         0  ultralytics.nn.modules.conv.Concat           [1]
 13                  -1  1   1642496  ultralytics.nn.modules.block.C3k2            [1024, 512, 1, True]
 14                  -1  1         0  torch.nn.modules.upsampling.Upsample         [None, 2, &apos;nearest&apos;]
 15             [-1, 4]  1         0  ultralytics.nn.modules.conv.Concat           [1]
 16                  -1  1    542720  ultralytics.nn.modules.block.C3k2            [1024, 256, 1, True]
 17                  -1  1    590336  ultralytics.nn.modules.conv.Conv             [256, 256, 3, 2]
 18            [-1, 13]  1         0  ultralytics.nn.modules.conv.Concat           [1]
 19                  -1  1   1511424  ultralytics.nn.modules.block.C3k2            [768, 512, 1, True]
 20                  -1  1   2360320  ultralytics.nn.modules.conv.Conv             [512, 512, 3, 2]
 21            [-1, 10]  1         0  ultralytics.nn.modules.conv.Concat           [1]
 22                  -1  1   1974784  ultralytics.nn.modules.block.C3k2            [1024, 512, 1, True, 0.5, True]
 23        [16, 19, 22]  1   2804784  ultralytics.nn.modules.head.Detect           [4, 1, True, [256, 512, 512]]
YOLO26m summary: 280 layers, 21,779,056 parameters, 21,779,056 gradients, 74.7 GFLOPs

Transferred 756/768 items from pretrained weights
AMP: running Automatic Mixed Precision (AMP) checks...
AMP: checks passed &#x2705;
train: Fast image access &#x2705; (ping: 0.0&#xB1;0.0 ms, read: 6443.4&#xB1;2834.6 MB/s, size: 553.0 KB)
train: Scanning /datasets/sawitmvc-yolo-03349942/labels/train.cache... 3164 images, 56 backgrounds, 0 corrupt: 100% &#x2501;&#x2501;&#x2501;&#x2501;&#x2501;&#x2501;&#x2501;&#x2501;&#x2501;&#x2501;&#x2501;&#x2501; 3164/3164 491.5Mit/s 0.0s
…
